…
        "model = Net().to(device)\n",
        "summary(model, input_size=(1, 28, 28))"
      ],
      "execution_count": 6,
      "outputs": [
        {
          "output_type": "stream",
          "text": [
            "Requirement already satisfied: torchsummary in /usr/local/lib/python3.6/dist-packages (1.5.1)\n",
            "cuda\n",
            "----------------------------------------------------------------\n",
            "        Layer (type)               Output Shape         Param #\n",
            "================================================================\n",
            "            Conv2d-1           [-1, 10, 28, 28]              90\n",
            "              ReLU-2           [-1, 10, 28, 28]               0\n",
            "       BatchNorm2d-3           [-1, 10, 28, 28]              20\n",
            "            Conv2d-4           [-1, 20, 28, 28]           1,800\n",
            "              ReLU-5           [-1, 20, 28, 28]               0\n",
            "       BatchNorm2d-6           [-1, 20, 28, 28]              40\n",
            "           Dropout-7           [-1, 20, 28, 28]               0\n",
            "         MaxPool2d-8           [-1, 20, 14, 14]               0\n",
            "            Conv2d-9           [-1, 10, 16, 16]             200\n",
            "           Conv2d-10           [-1, 20, 16, 16]           1,800\n",
            "             ReLU-11           [-1, 20, 16, 16]               0\n",
            "      BatchNorm2d-12           [-1, 20, 16, 16]              40\n",
            "          Dropout-13           [-1, 20, 16, 16]               0\n",
            "        MaxPool2d-14             [-1, 20, 8, 8]               0\n",
            "           Conv2d-15             [-1, 20, 8, 8]           3,600\n",
            "             ReLU-16             [-1, 20, 8, 8]               0\n",
            "      BatchNorm2d-17             [-1, 20, 8, 8]              40\n",
            "           Conv2d-18           [-1, 10, 10, 10]             200\n",
            "             ReLU-19           [-1, 10, 10, 10]               0\n",
            "      BatchNorm2d-20           [-1, 10, 10, 10]              20\n",
            "          Dropout-21           [-1, 10, 10, 10]               0\n",
            "           Conv2d-22             [-1, 16, 8, 8]           1,440\n",
            "             ReLU-23             [-1, 16, 8, 8]               0\n",
            "      BatchNorm2d-24             [-1, 16, 8, 8]              32\n",
            "          Dropout-25             [-1, 16, 8, 8]               0\n",
            "        AvgPool2d-26             [-1, 16, 1, 1]               0\n",
            "           Conv2d-27             [-1, 10, 1, 1]             160\n",
            "================================================================\n",
            "Total params: 9,482\n",
            "Trainable params: 9,482\n",
            "Non-trainable params: 0\n",
            "----------------------------------------------------------------\n",
            "Input size (MB): 0.00\n",
            "Forward/backward pass size (MB): 0.96\n",
            "Params size (MB): 0.04\n",
…
